best_model.pth (torch, 111910 bytes, 6 tensors)

fc1.weight f4 [128, 147]
000000 f3 79 8e 3d bc b3 c2 3c d2 ab 38 bd f8 f0 cf bc
       0.06956854 0.023767345 -0.045085736 -0.025383458
000010 e0 31 49 3e 2f 75 03 3e bb e0 94 3d 61 d3 58 3d
       0.19647932 0.1283767 0.072694264 0.05293596
000020 f3 fd cd 3d 77 b1 d1 3c 54 b7 1b 3e 37 60 ef 3d
       0.100582026 0.025597317 0.15206653 0.116882734
000030 bc a8 e4 3b 32 b9 b8 3d d9 07 f8 3d 42 2e 97 3c
       0.0069781225 0.09019698 0.12110872 0.018454675
000040 8a e1 5d 3d a8 28 5b bd ee b7 40 bc e7 0a 49 bb
       0.05417017 -0.05350557 -0.011762602 -0.0030676664
000050 50 13 5e 3e 92 f1 79 3b 39 74 d6 bd 7e 00 12 3e
       0.21687055 0.0038138372 -0.104713865 0.14258
000060 de 57 45 be 2e 28 c4 bd 92 03 c4 bd 5c c5 4a 3d
       -0.192718 -0.09577976 -0.095709935 0.049504623
000070 e9 6d 3e bc 4b c7 14 3e bc b2 a5 bc 99 38 59 3e
       -0.011622884 0.14529149 -0.020226829 0.21212997
000080 dc 90 10 bd 15 88 08 bd 28 b0 a0 3d 69 bb 42 3d
       -0.0352944 -0.033332903 0.07846099 0.04754201
000090 72 de 0f bc b6 9f 24 3a 3d e5 96 bd 3f bc a9 3c
       -0.008781062 0.00062799023 -0.073679425 0.020719646
0000a0 ff 93 0a be 95 81 f7 3c 10 ac a8 3d b1 a8 05 3e
       -0.13533019 0.030213157 0.08235943 0.13052632
0000b0 e3 52 f5 3d 6a e4 56 3e e1 57 7d 3e a4 8b 1f 3e
       0.119787 0.2098557 0.24740554 0.15580612
0000c0 1e 8a 36 3e 01 5e 80 3e ab 92 0d 3e 7b 80 5b 3c
       0.17826125 0.2507172 0.1382548 0.013397331
0000d0 70 6a 72 be f0 2c b9 bd 5d 49 4d 3b bb 5e b0 3d
       -0.23673415 -0.09041774 0.0031324246 0.086118184
0000e0 bd 99 09 3e f3 01 cc 3c fe 7e fd 3c 58 c4 2e 3e
       0.13437553 0.024903273 0.030944344 0.17067087
0000f0 bc fa 31 3e 4a fa d0 3c 62 1d 1e 3e b5 d5 4e 3e
       0.17380804 0.025509972 0.15440896 0.2019871
000100 65 a4 43 3e 2c d8 0b 3e f1 5f b7 3d 31 20 09 3e
       0.1910568 0.13656682 0.08953846 0.13391186
000110 1b 4c 8f 3d 9e 1a 03 3e ed b1 6e 3e 6d 0a 16 3e
       0.06996938 0.12803122 0.23310061 0.14652415
000120 9a 1e f0 3d af cd 02 3e 08 26 ad 3c 48 50 b9 3d
       0.11724587 0.12773775 0.021136299 0.090485156
000130 83 7c f9 3d 75 f4 08 3e de 68 3d 3e 93 15 17 3e
       0.12181952 0.13374503 0.18497035 0.14754324
000140 0b 6c 30 3c ad ca ee 3c a8 2d 64 3e b8 17 76 bc
       0.010767947 0.029149378 0.22283041 -0.015020303
000150 9b 3d 58 3e 61 2d 00 3e 9a 0f a5 3d 70 03 36 3e
       0.2111725 0.1251731 0.080596164 0.17774749
000160 63 fa 53 3e ea d3 8b 3d 7b 62 d8 3d b9 7e ae 3d
       0.20700984 0.06827529 0.10565659 0.08520264
000170 8d 03 b3 3d f7 13 26 3e 65 ff aa bc e7 51 9a 3d
       0.08740912 0.16218553 -0.020873735 0.07535153
000180 3c b0 e7 3d 56 2d a8 3d 21 e0 16 3d 1c e6 8d 3d
       0.11312911 0.08211772 0.03683484 0.069286555
000190 89 5b d3 3d c1 0e 1d be 87 71 d3 bd d5 c1 0f 3d
       0.10320193 -0.1533766 -0.10324388 0.035096962
0001a0 78 45 0c 3e 30 a5 84 bd 26 55 67 3c 70 01 d5 bd
       0.13698375 -0.064768195 0.014119422 -0.10400665
0001b0 98 ac 44 be 6a 69 2b 3d 7a 19 1f 3a 4c b7 ae 3d
       -0.19206464 0.041848578 0.0006069165 0.08531055
0001c0 1f 67 80 be ba 5b 15 bd 08 1d fd bd cf f2 1f be
       -0.25078675 -0.03646443 -0.12359053 -0.15619968
0001d0 47 10 1b be 4d 6e 9e 3d 00 5d 2d ba 3f bb 58 3d
       -0.15142928 0.07735882 -0.00066132843 0.052912947
0001e0 3d 31 ad bd e9 44 41 3d 9c 50 fc bd 00 98 95 bd
       -0.08456657 0.04718486 -0.123200625 -0.07304382
0001f0 e0 02 8b 3d d2 c7 24 3d 5f 6e 0f be 1c 6a 85 3d
       0.06787658 0.040229626 -0.14006947 0.065143794
000200 a3 38 85 3d 6f e4 a7 bd 35 fb 98 3d 7c dd 16 3d
       0.06504943 -0.08197867 0.07469789 0.036832318
000210 3d aa 3a be a6 c3 b1 3c 57 0c 0a be 51 74 57 bd
       -0.18229003 0.021699738 -0.1348127 -0.052601162
000220 f9 b4 53 bd 5e 79 c9 bd 7c 09 21 3d 28 0c 3e 3b
       -0.05168626 -0.09837602 0.039315686 0.0028998945
000230 82 e5 2f be a2 a4 a0 bc fb b8 23 be 80 a0 4c be
       -0.17177394 -0.019609753 -0.15988533 -0.19983101
000240 8e a7 61 be 5c ec 44 be 14 89 5a be 36 79 10 3e
       -0.22036573 -0.19230789 -0.21341354 0.14108738
000250 15 6c db 3c 37 4c f5 3c 17 93 f0 3c c9 3c ca bc
       0.026784936 0.029943569 0.029367013 -0.024687188
000260 0e 50 4a bd 82 d3 e4 bd f7 50 f2 3c ba 1f 97 3d
       -0.049392752 -0.111731544 0.029579623 0.07379098
000270 bb 25 f2 3c 96 00 17 bc 24 e0 32 bc 57 6e e3 3d
       0.029559007 -0.009216448 -0.010917697 0.1110503
000280 5f 75 21 be a3 83 09 bd 2c 02 e9 bd ad fa 3e bc
       -0.1576743 -0.033572804 -0.113773674 -0.011656445
000290 d5 a7 9c bd 92 54 a6 bc 62 c4 04 be 04 39 26 be
       -0.07649199 -0.020303998 -0.12965539 -0.16232687
0002a0 c6 2d a7 bd a6 ea e2 3d 51 6e 3a be 6b d7 75 3d
       -0.081630275 0.11079912 -0.18206145 0.06001989
0002b0 f8 a3 02 be 6b 04 25 3b 62 8d 33 be 1e db af bd
       -0.12757862 0.0025179635 -0.17534402 -0.08586715
0002c0 40 c0 9a be a6 f4 9f bd 40 81 2e be f2 2e 84 3c
       -0.302248 -0.07810335 -0.17041492 0.016135667
0002d0 1d dc a8 bd 12 e6 56 be 93 1b 05 3d 2f 23 5e 3d
       -0.08245108 -0.20986202 0.032497 0.054232772
0002e0 c9 c2 37 3d fc d7 18 3c db 50 ea bc 32 c9 7d bd
       0.044863496 0.009328838 -0.028603008 -0.061959453
0002f0 e0 54 29 3e 0b cf c6 bc 39 53 e8 3c 9c a1 45 bd
       0.16536283 -0.024268648 0.028359996 -0.048249826
000300 6a 72 3b 3d 71 10 2f be e0 dd f8 3a 97 73 c7 bd
       0.04576341 -0.17096116 0.0018987022 -0.09738844
000310 cd f2 1f 3e b7 ed 6a bd 29 27 17 bd 9e 35 5a bd
       0.15619965 -0.05735561 -0.03690258 -0.05327379
000320 17 58 f4 bd bc 7b 37 bd be 17 00 be a2 dd 8b bd
       -0.11930864 -0.044795737 -0.12509057 -0.068293825
000330 c1 15 e6 bd b3 1d 18 be 73 35 05 be 8e bf 0a be
       -0.11234618 -0.1485508 -0.1300867 -0.13549635
000340 27 c6 22 be 1a 10 2a be 28 a6 8e be 61 44 0d be
       -0.15895902 -0.16607705 -0.27861142 -0.13795616
000350 ff f5 f1 bd 03 21 c5 bd f5 12 0a be 33 ca 29 be
       -0.11814498 -0.09625437 -0.13483794 -0.16581039
000360 97 e0 6f bc ae 17 3c be c7 1a c1 bd c2 4b 65 bd
       -0.014640949 -0.18368408 -0.094289355 -0.05598045
000370 74 89 91 bd 92 a9 2a bd b1 ba 06 3d 3b be 3e 3e
       -0.07106295 -0.04166562 0.032892887 0.18627255
000380 4f ab 9d be b9 63 99 3d fc a3 d2 3c bc f9 d7 bd
       -0.3079476 0.07489724 0.02571296 -0.1054568
000390 cd 85 06 3e 46 59 87 bd 0e e3 53 bc 2f 03 ac 3c
       0.13136978 -0.066088244 -0.012932552 0.020997612
0003a0 9c 0b 52 3d 5e b6 0e 3e 70 a0 e6 bc 41 6d 6b bd
       0.051280603 0.13936755 -0.028152674 -0.05747724
0003b0 cc ce ae 3e d5 f0 35 be 41 58 ea bd 3e 33 10 3e
       0.34142148 -0.17767651 -0.11442614 0.14082047
0003c0 16 74 34 3e 80 e4 38 3e fc 65 d5 3c ed 60 1e 3e
       0.17622408 0.18055916 0.026049607 0.15466662
0003d0 52 43 db 3d 83 13 33 bc 23 c1 dd 3d 7e 49 27 3e
       0.107062 -0.010929945 0.108278535 0.16336629
0003e0 dd df c1 3d b2 69 d0 3d df e5 b0 3d e2 f3 60 3e
       0.09466527 0.1017641 0.086375944 0.21968034
0003f0 07 21 26 3e 4d fc 25 3d a4 7c 1b 3e 83 e0 cf 3d
       0.16223536 0.040523816 0.15184265 0.10150244

fc1.bias f4 [128]
000000 2b 4e ab 3e a9 a6 5e 3e 80 b5 6b 3f 22 5f 5f 3e
       0.33458075 0.21743263 0.9207382 0.21813634
000010 04 2f c3 3e f3 56 30 bf f0 2e 0f 3f 25 7c 43 3f
       0.38121808 -0.68882674 0.55930996 0.76361305
000020 1b 26 a7 3f ca 65 3c bf e4 2d 4f 3f d4 ad 1b bf
       1.3058504 -0.7359282 0.809294 -0.60812116
000030 47 1e 61 3f dc 2d 7a 3e 37 a0 2a bd 87 66 07 3f
       0.87936825 0.24431556 -0.0416567 0.5289082
000040 48 62 0f 3e ce 48 70 be fa fd 64 3d b0 74 19 3f
       0.14002335 -0.23465273 0.055906273 0.59943676
000050 09 ce 21 be e3 a3 b2 3e 33 4c 03 bf ef b4 75 3f
       -0.15801252 0.3489066 -0.51288146 0.9597921
000060 ef 44 60 3f 2d 2d 82 3e b9 f9 57 3f 16 6e ac be
       0.87605184 0.2542509 0.8436542 -0.3367774
000070 e4 81 28 bf 34 de 77 3f 2a db 82 3f a1 25 8b bc
       -0.658232 0.9682343 1.0223134 -0.016985716
000080 26 17 61 3f 35 d3 c3 3e b9 8b 8e be 14 2a 3b 3f
       0.87925947 0.38247076 -0.27840975 0.7311108
000090 c6 a8 34 3f 7e 38 3c 3f fe a6 f1 3e 53 0a bd bd
       0.7057003 0.735237 0.47197717 -0.09230485
0000a0 10 d1 a7 bd d7 d1 98 bd 8b 2b 7f bd 56 98 5d bd
       -0.081941724 -0.07461899 -0.062297385 -0.054100357
0000b0 67 f9 ec bd ad 6e 5e 3e 3f 6e 60 bf e7 3b 27 3f
       -0.11571007 0.21721907 -0.8766822 0.6532578
0000c0 eb ac 82 3c 4d a4 a5 3e 47 48 b6 3e 5b 94 11 3f
       0.015951594 0.32351914 0.35602018 0.56867
0000d0 02 13 fc 3d 28 30 29 be 50 47 7c bd 21 db a1 be
       0.12308313 -0.16522276 -0.061591446 -0.31612495
0000e0 c4 99 c3 be e7 b4 c3 3d 5a d5 6e 3f fb 94 89 3f
       -0.3820325 0.09555989 0.932943 1.074859
0000f0 87 08 2a bd bd 40 0f be dc 66 9d be 21 fe 2d bf
       -0.04151204 -0.1398954 -0.30742538 -0.67965895
000100 2d 1b b9 be 30 10 46 bf 29 05 6c be d2 f9 95 bd
       -0.36153546 -0.7736845 -0.23048843 -0.0732304
000110 bd 57 91 3e 55 97 99 3e ab ff 0b 3f 10 6b be be
       0.28387251 0.2999827 0.54686993 -0.37191057
000120 b3 55 1d 3f 7c 68 c6 be 90 ad 69 3e 64 60 48 bf
       0.6145889 -0.3875159 0.22820115 -0.7827208
000130 4e df 38 3e aa 89 97 3e 80 54 a3 be 5e 86 59 3f
       0.18053934 0.29597217 -0.31900406 0.84970653
000140 9b b7 9d be 6b 6a 00 3f a4 a4 78 3e 96 5a db be
       -0.30804142 0.5016238 0.24281555 -0.4284255
000150 51 1a 1b 3f f5 5a de 3d 1e 33 96 be 73 34 1f bd
       0.6058703 0.108571924 -0.29335874 -0.03886838
000160 3e 22 b2 be 33 55 e1 3e 64 ed 6c 3f 72 a2 1d bf
       -0.3479175 0.44010314 0.9254973 -0.61575997
000170 4a d6 12 3f 4a a3 32 3e ab 8f 2a be 16 c8 3b be
       0.5735823 0.17445102 -0.16656367 -0.18338045
000180 98 4c 61 3e 64 e4 5a 3f 8e c3 40 bc d8 6f 8f 3f
       0.22001874 0.85504746 -0.011765374 1.1206007
000190 e7 85 4c 3f d2 a2 e5 3e 91 94 d3 3e a2 93 65 bf
       0.7989182 0.44850785 0.41324285 -0.89678395
0001a0 b3 9e ac 3e e7 0e 4c 3f 0b 75 d0 3e b7 63 54 3f
       0.33714828 0.7971024 0.40714297 0.8296465
0001b0 0d 6a 47 be 93 79 05 3f b0 59 8d be 02 82 65 bf
       -0.19474049 0.5213863 -0.2760749 -0.896515
0001c0 52 bf b6 3c 37 ac 54 3f ed 15 98 3f 3f 7d f5 3e
       0.022308026 0.8307528 1.1881691 0.47947118
0001d0 16 fc a4 be da ec 82 be c4 a4 1e 3f dc e1 48 bf
       -0.32223576 -0.25571328 0.6197016 -0.78469634
0001e0 4f 2c 47 3e 0d dd 53 be ce 0c 54 3f ed 94 9d bc
       0.19450496 -0.20689793 0.8283204 -0.019236052
0001f0 c1 a1 15 3e 6a 7e b1 3c 19 67 32 3f b2 cc 94 3e
       0.14612485 0.021666724 0.69688565 0.2906242

fc2.weight f4 [64, 128]
000000 86 8c 13 bd e0 a2 94 bd cd 6b 41 be e5 22 cb bd
       -0.036022685 -0.072576284 -0.18888779 -0.09918765
000010 c4 0b 63 bf ef ad 55 bf 9b 69 83 3d 75 c8 04 bf
       -0.8868983 -0.83468527 0.06416627 -0.51868373
000020 a8 33 c9 bf d9 25 7c 3e 29 cb 83 be 7a fe 33 3e
       -1.5718889 0.24623813 -0.25740936 0.17577544
000030 1b a4 2c be b1 6d 9c 3d 64 41 89 bc fc cf e2 bd
       -0.16859476 0.076381095 -0.016754813 -0.11074826
000040 1d e7 8c 3e c6 b2 2d bc 27 46 1f 3e ac 56 0e bf
       0.27520075 -0.010601705 0.15554105 -0.55601
000050 4e 3d 00 bd f7 3f 54 3e 0a aa ee 3d ff 3d e2 bd
       -0.031308465 0.20727526 0.11653526 -0.11046981
000060 90 12 47 be a1 db 90 3d 56 54 34 be 6e 0d 6b 3e
       -0.19440675 0.07073141 -0.17610297 0.22954342
000070 41 70 3e 3e 7c 80 8e bf 7a 51 84 be fc 1e 87 bf
       0.18597509 -1.113296 -0.25843412 -1.0556331
000080 f3 85 c2 3a f1 a0 7a 3e 7c af 04 3e a9 8d cb bd
       0.0014840945 0.24475457 0.12957567 -0.09939129
000090 75 42 4e bd e9 cb 55 bd 77 32 9c bd 19 a5 4a bd
       -0.050356347 -0.052196417 -0.07626813 -0.049473856
0000a0 3c d9 8c 3c fc bf 67 3e cc f6 05 3e 10 56 b1 bc
       0.01719343 0.2263183 0.13082427 -0.021647483
0000b0 53 07 29 bf ea cc 99 bd 3e 40 8e 3e f7 b2 2e bd
       -0.660268 -0.075097874 0.27783388 -0.042651143
0000c0 63 b1 ec 3d f7 9a a2 3c ff d7 f2 3b 3f bc 84 3e
       0.11557271 0.019849284 0.0074110026 0.2592487
0000d0 5a bd a6 bc f3 15 64 bf 31 49 98 3e 1b bb d2 be
       -0.020353962 -0.8909599 0.2974334 -0.41158375
0000e0 fb 5d 35 3e 5e 8d 7a bd c0 bd 1e be ab 5c ec be
       0.17711632 -0.061169975 -0.15502071 -0.4616445
0000f0 b0 3a de 3b d0 d8 c0 3d 48 df 5d 3e 1d c8 42 3c
       0.0067818984 0.09416354 0.21667206 0.011888531
000100 9f 59 8b 3e fb 7b 4f 3e d7 1d 35 3e bb 42 57 be
       0.27216813 0.20262139 0.17687164 -0.2102155
000110 c1 f6 17 3c 38 07 7a 3e 86 be 53 be 52 64 94 3e
       0.009275139 0.24416816 -0.20678148 0.28982788
000120 24 2b 64 be 35 cf 8c 3e 2e c8 2a bf 1d 21 56 3e
       -0.22282082 0.27501836 -0.667117 0.20911069
000130 f9 3d 81 bd bf 38 1b be ae 74 89 3e ae 73 25 bf
       -0.063106485 -0.15158366 0.26846832 -0.6462964
000140 0c 14 6d 3e d2 0b 83 be c2 d5 a3 be 1c e6 8c 3e
       0.23152179 -0.25594956 -0.31999022 0.2751931
000150 4a 64 87 be 8f 82 a8 3e cf df bf 3d 5d 86 8c 3e
       -0.26443702 0.32912108 0.0936886 0.2744626
000160 94 16 03 3e 34 f3 34 3e 86 f5 25 be d2 5e 9e 3e
       0.12801582 0.176709 -0.16206941 0.30931717
000170 4d 5a 34 bf d5 c9 67 3e ef b5 80 be b7 9e 96 3e
       -0.7045029 0.22635587 -0.25138804 0.29417965
000180 75 a0 f0 bd 37 f0 c2 bd d8 95 2b 3d 33 09 cb be
       -0.11749355 -0.095184736 0.04189095 -0.39655456
000190 da e3 3a be 8e 0d 69 bf f6 ce 6a 3d 5e d6 30 3e
       -0.18250981 -0.9103631 0.05732628 0.17269275
0001a0 5e 37 9f bc fb 84 59 be 12 c0 95 3d 77 19 34 3e
       -0.01943558 -0.21242134 0.07312025 0.17587839
0001b0 76 99 85 be 3d 4a 2a be e9 97 35 3e 04 f7 e0 3d
       -0.26093644 -0.16629882 0.1773373 0.109846145
0001c0 b0 e7 45 bf 12 58 2c 3e 8a f3 f8 be 04 14 1b 3e
       -0.7730665 0.16830471 -0.48623306 0.15144354
0001d0 f5 ea 05 3e fd ab 97 3e e4 3d fa bb d7 d4 11 3e
       0.1307791 0.29623404 -0.0076367725 0.14241348
0001e0 9f 29 98 3e 41 76 5b 3e 8c 5f d4 3d 89 6a 8d bf
       0.29719254 0.21431829 0.103697866 -1.1048137
0001f0 39 31 01 3e 10 75 27 bd cc b2 15 3d 08 3b 83 3e
       0.12616433 -0.040883124 0.036547467 0.25630975
000200 06 bf b4 3d d6 ac 09 be 49 d5 4d 3e fe db 11 3e
       0.08825497 -0.13444838 0.20100893 0.14244077
000210 a7 9a cb bd 57 71 93 3e 24 b6 18 be 42 c3 1f 3e
       -0.09941607 0.2879741 -0.14913231 0.15601829
000220 fd 8c 69 be 2d e9 57 bc bc a0 b2 3d 52 35 6d 3d
       -0.22807689 -0.013178152 0.08722064 0.05791218
000230 2a 34 16 3e 2e a5 cf 3c ec 3e a6 bd 90 f0 ee 3d
       0.14668337 0.025347319 -0.0811747 0.116669774
000240 a2 b2 83 bc 61 3a 59 3e e1 47 c7 3d 76 e5 42 be
       -0.01607639 0.21213676 0.09730507 -0.19032845
000250 ed 06 0e be 30 ee a4 bb 7a 38 9e 3d 4d 5b c8 3d
       -0.1386983 -0.005033277 0.07725616 0.09783039
000260 34 c3 41 3e d1 7e 04 3e b6 c2 25 3e 98 1a 17 be
       0.1892212 0.12939002 0.16187558 -0.14756238
000270 83 51 11 3c f2 52 a3 3d 5e a6 72 bc 28 d8 a1 bd
       0.008869532 0.07974805 -0.014810173 -0.07902557
000280 b8 e9 a5 3d 7b bf b0 bd 93 b7 59 3d 79 57 76 3e
       0.08101219 -0.08630272 0.053153586 0.24056806
000290 83 a9 c9 3d 7f c4 bc 3d 7b 04 2d 3e 9a ed 4d bd
       0.09846785 0.09217166 0.1689624 -0.050275423
0002a0 3e 8a 27 bb 52 56 51 3b 79 fc d7 3d 96 2f 34 3d
       -0.0025564576 0.003194232 0.10546202 0.043990694
0002b0 ea 81 9f bd 33 f7 07 3e 4c 21 4a 3d b3 21 02 3c
       -0.07788451 0.13277893 0.04934816 0.007942605
0002c0 02 3f a9 3d f9 08 c9 3b 9a 89 27 3e b6 78 41 be
       0.08263971 0.006135103 0.16361085 -0.18893704
0002d0 d3 99 70 bd 5a dd b3 bc f2 5c 94 3d 0b f1 49 bd
       -0.05874045 -0.021956135 0.072442904 -0.049302142
0002e0 17 da ee 3d 0e 15 d8 3d d2 b3 9a be 81 fd fc 3d
       0.11662691 0.10550891 -0.30215317 0.123530395
0002f0 64 c5 94 3d e7 b8 8c 3d 6e ab 3e 3e 8e 81 76 3d
       0.07264212 0.06871205 0.18620083 0.060182147
000300 f3 71 a8 3d c4 95 80 bc 62 c8 61 3d 91 1d 35 bd
       0.08224859 -0.015696414 0.05512274 -0.04421765
000310 a0 c7 62 3e 6d 7e 10 be b4 a2 8c bd ef 05 a6 3d
       0.22146463 -0.14110728 -0.06866971 0.081066005
000320 f3 06 84 bd c7 2d d0 3d 3d 0f e5 bd df 08 13 bd
       -0.06446638 0.10164981 -0.11184547 -0.035897132
000330 20 a7 de bd a3 08 09 3e 14 c9 de 3c 59 7f 2c 3e
       -0.1087172 0.13382201 0.02719549 0.16845454
000340 0c 64 c4 3d ef 9a 9b 3d 3e 5d 1a be a0 22 ba bc
       0.09589395 0.075979106 -0.15074632 -0.022721589
000350 3c 0b 19 be 3d 7d bb 3e 2e e9 49 bd 66 a9 70 3d
       -0.14945692 0.36618987 -0.049294643 0.0587553
000360 70 2c 66 bd 68 c4 87 bd 9b 9e 42 3e 6e 98 ae 3d
       -0.056194723 -0.066292584 0.19005816 0.085251674
000370 b2 79 cb 3d ab 0c 9b 3e c7 3e 20 be 18 7f 81 bd
       0.09935321 0.30283102 -0.15648948 -0.06323069
000380 db fa 9e 3d 07 9d 8c 3d 49 cc 0f bc c7 64 39 3e
       0.07762691 0.06865888 -0.008776733 0.1810485
000390 c5 5c 97 3d 01 3c e6 3a 1e 90 03 3e 74 9c b4 bc
       0.07390741 0.001756549 0.12847945 -0.022047259
0003a0 7c 6a 62 3d 3f 8c 58 3e c7 77 b3 bb 36 ce 9f 3a
       0.055277333 0.2114725 -0.005476925 0.0012192193
0003b0 6f 21 ed 3d 1f 0b 4c 3d 57 4d 0e 3a f2 7e 70 3e
       0.115786426 0.049815293 0.00054283947 0.23485926
0003c0 23 a5 de bd d2 1e 85 bd ea 44 06 bd 81 af e0 bc
       -0.10871341 -0.06500019 -0.032780565 -0.027427437
0003d0 d5 31 05 bc e5 ef 4b 3d 19 8c 55 be bd 2b 50 3d
       -0.008129557 0.049789328 -0.20854224 0.050822962
0003e0 ef 08 e7 bd 56 71 4a bd 87 15 a1 3d 45 77 93 bc
       -0.11281001 -0.04942449 0.07865434 -0.018001208
0003f0 fd c4 e0 bd 62 d8 84 3d e4 d6 9f 3e 66 0f a8 3e
       -0.109750725 0.06486584 0.31218636 0.32824248

fc2.bias f4 [64]
000000 97 10 49 bf 41 00 16 3e de dd a0 3e 7b ee 28 3f
       -0.7854094 0.14648534 0.3141927 0.6598889
000010 9b 52 45 3f 04 38 3e 3f 81 51 1a 3f 52 4d b6 3e
       0.7707917 0.74304223 0.60280615 0.35605866
000020 b1 81 57 3e eb e3 9c 3d 2e 1e 8b 3d 72 ee 91 bd
       0.21045567 0.076606594 0.06792866 -0.07125558
000030 38 c4 da 3e af 1a b2 3e 77 f3 be be a3 41 15 3f
       0.42727828 0.34785983 -0.37295124 0.5830328
000040 6c a7 a3 bd 98 b8 25 3f 37 14 ca 3e a0 ca 14 3f
       -0.079909176 0.6473479 0.39468548 0.5812168
000050 79 0c 8d 3e 9a fd 56 3e 88 8e 73 be 04 f8 c3 3e
       0.27548578 0.20995179 -0.2378484 0.38275158
000060 8a bf 46 3e c4 93 24 3e 38 be 98 bd 91 4c 2c 3e
       0.19409004 0.16071993 -0.07458156 0.16826083
000070 36 57 0d 3d 3b 28 c5 bc 4e 61 4b 3f 4b f7 e6 3b
       0.034507 -0.024067035 0.7944535 0.0070485226
000080 3d d9 a7 be cd 74 64 bc de a4 2c 3f ff 7b 69 3e
       -0.32782927 -0.013943863 0.6743907 0.22801207
000090 9e de 07 3f 58 38 b5 3e 63 67 4d 3f 02 a5 fe 3e
       0.5307406 0.3539455 0.8023588 0.49735266
0000a0 c2 6c 29 3f 60 07 01 bd de 37 5b 3d 1f af cc 3e
       0.66181576 -0.031501174 0.053520076 0.39977357
0000b0 42 c9 8e 3d 67 3c 26 be a2 ac ff 3e d4 69 03 3f
       0.06971981 -0.16233979 0.49936396 0.51333356
0000c0 f9 33 12 bf d8 94 85 3e 9d e6 75 be 25 8c f4 3e
       -0.57110554 0.2609012 -0.24013753 0.47763172
0000d0 65 a5 14 bf a9 2a 9f 3e 24 9b 10 be f1 76 b4 bd
       -0.5806487 0.31087235 -0.14121681 -0.08811749
0000e0 bd e7 f0 3e 0f d4 ee 3e a4 af 9b be 21 76 93 3c
       0.47051802 0.46646163 -0.3040744 0.018000664
0000f0 1d 5c 67 3d 56 c7 31 bd 95 36 8f bd 6a ff 9a bd
       0.05648433 -0.043402992 -0.069928326 -0.075682476

fc3.weight f4 [2, 64]
000000 c8 94 90 3e 53 4e 0c be 8b 82 45 3e da 8d 32 bd
       0.2823851 -0.13701753 0.1928808 -0.04359231
000010 d4 01 c9 bd 77 a2 d5 be 2d 41 ea be 85 b8 a7 3d
       -0.09814802 -0.41725513 -0.4575285 0.08189491
000020 79 70 31 be 2d db 13 3e 66 2d 37 be 14 22 10 3d
       -0.17328061 0.14439078 -0.17888412 0.03518875
000030 c9 71 82 3e b2 e4 8e 3e 6c 75 8a 3e d9 7d cb be
       0.25477436 0.27908856 0.2704271 -0.39744452
000040 eb eb 7b 3d b8 91 88 be 6b d7 f3 3d f4 10 8a 3e
       0.061504286 -0.26673675 0.11906322 0.2696606
000050 36 72 66 be 53 3d 88 3e fb 42 88 3e 02 14 f2 3d
       -0.22504506 0.26609287 0.26613602 0.118202224
000060 79 ef 16 be ff 0e 26 3e 53 4b a6 bd 32 00 13 be
       -0.14739789 0.16216658 -0.08119836 -0.14355543
000070 c1 18 17 3d 95 8f 9c 3b 9b 4d f7 be 9d 9d 18 3d
       0.03688884 0.0047778585 -0.48301396 0.037259687
000080 e8 15 6b 3e 61 79 59 3e 50 bb 33 3d a7 5f 53 be
       0.22957575 0.21237709 0.043879807 -0.20641957
000090 26 ba 18 bf a8 ad 16 be b5 11 cc be d3 66 67 3e
       -0.5965904 -0.14714682 -0.3985726 0.22597818
0000a0 63 65 ce be 47 cb 9f bd 1a 78 67 3d 11 d9 e9 3d
       -0.40311727 -0.07802444 0.056511022 0.11418355
0000b0 c4 80 41 be ed a5 76 3e 85 18 71 3e 70 51 bb be
       -0.18896776 0.24086733 0.2354451 -0.3658557
0000c0 5e b5 c2 3e 83 14 2d 3e c2 df 64 3e e5 ab 36 bb
       0.38028997 0.16902356 0.22350982 -0.0027873453
0000d0 01 b3 71 3e 6b e5 60 3e f0 b6 96 bd f3 1d 68 bb
       0.23603441 0.21962516 -0.07359111 -0.0035418242
0000e0 51 a0 9a 3e 7b f9 4b be f5 6c 49 bd cc 63 6a bd
       0.30200437 -0.19919388 -0.049176175 -0.05722408
0000f0 fc 87 7e 3b 56 63 27 3d 0d be a1 bd 34 e3 7a 3e
       0.0038838377 0.04086622 -0.078975774 0.24500734
000100 f2 ea 43 bf 0a c6 f7 3d 88 28 bc bd 48 d3 a0 be
       -0.76530373 0.1209832 -0.09187418 -0.31411195
000110 fa 63 04 bf e0 28 21 bd fa ac 56 be f9 57 66 be
       -0.5171505 -0.039345622 -0.20964423 -0.22494496
000120 ef f1 a5 3d 24 89 08 3b c8 9b 49 3e e6 88 b4 3d
       0.08102786 0.0020833695 0.19688332 0.08815174
000130 1b 6e a2 be 3b ce ca bd 50 63 32 3e 6d 7b 95 bd
       -0.3172463 -0.099026166 0.17420697 -0.07298932
000140 92 27 bb 3c ff f5 eb be 83 68 ae be 74 7c 60 be
       0.022846017 -0.46086118 -0.3406411 -0.21922475
000150 83 f9 18 3d 08 a2 a4 bd f8 c8 29 3e 31 0c 99 be
       0.037347328 -0.080387175 0.1658057 -0.29892114
000160 7a 3e 20 3e 0c 4f b8 bd 79 4d b0 3b 73 d2 d7 3d
       0.15648833 -0.08999452 0.005380329 0.10538187
000170 46 16 72 3b b3 f2 d0 3b f4 93 2a be 23 04 99 3d
       0.0036939546 0.0063765883 -0.16658002 0.07471492
000180 d5 cc 22 3e f5 d1 01 3b ce b3 e1 be c2 49 d0 3d
       0.1589845 0.0019808982 -0.44082493 0.10170318
000190 5b 3f 81 3f 50 d0 a0 3d 73 2d ae be fe 9f cc be
       1.009746 0.078522325 -0.3401905 -0.39965814
0001a0 3d dc 58 be 95 a0 11 3e 63 c4 ca 3d db 6c 96 be
       -0.21177764 0.14221413 0.09900739 -0.29379925
0001b0 05 d3 2d 3e b8 8a 9b 3d e3 bd fe be b5 08 96 bc
       0.16975029 0.07594818 -0.49754247 -0.018314699
0001c0 95 59 92 3e e1 21 75 bd af 9b 8f 3d fd 25 e5 be
       0.2858397 -0.059846763 0.07012116 -0.44755545
0001d0 6a 60 10 3f f9 1e b3 bd e2 8c 83 3e 48 aa 1e bd
       0.56397116 -0.08746142 0.25693423 -0.03873661
0001e0 c4 85 1a be d4 be f4 3c 04 fe 8a 3e d4 d2 be 3d
       -0.1509009 0.02987615 0.27146924 0.09317556
0001f0 fe b8 b1 3d b0 f6 70 bd fc 27 14 3d 3a 77 c0 3c
       0.086778626 -0.05882901 0.036170945 0.023494352

fc3.bias f4 [2]
000000 36 15 b3 be 40 7e b0 be
       -0.3497712 -0.3447132
